nohup: ignoring input
Loading previously saved dgl graphs and corresponding data...
Loading previously saved dgl graphs and corresponding data...
Loading previously saved dgl graphs and corresponding data...
the number of train data: 160
the number of valid data: 20
the number of test data: 20
number of parameters :  378246
DTIPredictorV4_V2(
  (cov_graph): ModifiedAttentiveFPPredictorV2(
    (gnn): ModifiedAttentiveFPGNNV2(
      (init_context): GetContext(
        (project_node): Sequential(
          (0): Linear(in_features=40, out_features=128, bias=True)
          (1): LeakyReLU(negative_slope=0.01)
        )
        (project_edge1): Sequential(
          (0): Linear(in_features=61, out_features=128, bias=True)
          (1): LeakyReLU(negative_slope=0.01)
        )
        (project_edge2): Sequential(
          (0): Dropout(p=0.15, inplace=False)
          (1): Linear(in_features=256, out_features=1, bias=True)
          (2): LeakyReLU(negative_slope=0.01)
        )
        (attentive_gru): AttentiveGRU1(
          (edge_transform): Sequential(
            (0): Dropout(p=0.15, inplace=False)
            (1): Linear(in_features=128, out_features=128, bias=True)
          )
          (gru): GRUCell(128, 128)
        )
      )
      (gnn_layers): ModuleList(
        (0): GNNLayer(
          (project_edge): Sequential(
            (0): Dropout(p=0.15, inplace=False)
            (1): Linear(in_features=256, out_features=1, bias=True)
            (2): LeakyReLU(negative_slope=0.01)
          )
          (attentive_gru): AttentiveGRU2(
            (project_node): Sequential(
              (0): Dropout(p=0.15, inplace=False)
              (1): Linear(in_features=128, out_features=128, bias=True)
            )
            (gru): GRUCell(128, 128)
          )
          (bn_layer): BatchNorm1d(128, eps=1e-05, momentum=0.1, affine=True, track_running_stats=True)
        )
      )
    )
    (predict): Sequential(
      (0): Dropout(p=0.15, inplace=False)
      (1): Linear(in_features=128, out_features=1, bias=True)
    )
  )
  (noncov_graph): DTIConvGraph3Layer(
    (grah_conv): DTIConvGraph3(
      (mpl): Sequential(
        (0): Linear(in_features=129, out_features=128, bias=True)
        (1): LeakyReLU(negative_slope=0.01)
        (2): Linear(in_features=128, out_features=128, bias=True)
        (3): LeakyReLU(negative_slope=0.01)
        (4): Linear(in_features=128, out_features=128, bias=True)
        (5): LeakyReLU(negative_slope=0.01)
      )
    )
    (dropout): Dropout(p=0.15, inplace=False)
    (bn_layer): BatchNorm1d(128, eps=1e-05, momentum=0.1, affine=True, track_running_stats=True)
  )
  (FC): FC(
    (predict): ModuleList(
      (0): Linear(in_features=512, out_features=128, bias=True)
      (1): Dropout(p=0.15, inplace=False)
      (2): LeakyReLU(negative_slope=0.01)
      (3): BatchNorm1d(128, eps=1e-05, momentum=0.1, affine=True, track_running_stats=True)
      (4): Linear(in_features=128, out_features=128, bias=True)
      (5): Dropout(p=0.15, inplace=False)
      (6): LeakyReLU(negative_slope=0.01)
      (7): BatchNorm1d(128, eps=1e-05, momentum=0.1, affine=True, track_running_stats=True)
      (8): Linear(in_features=128, out_features=2, bias=True)
    )
  )
  (readout): EdgeWeightedSumAndMax(
    (weight_and_sum): EdgeWeightAndSum(
      (atom_weighting): Sequential(
        (0): Linear(in_features=128, out_features=1, bias=True)
        (1): Tanh()
      )
    )
  )
)
epoch:0
train_mcc:0.0128 	 train_acc:0.6937 
valid_mcc:-0.0964 	 valid_acc:0.8000
time:1.833 s
EarlyStopping counter: 1 out of 70
epoch:1
train_mcc:0.0000 	 train_acc:0.7812 
valid_mcc:0.0000 	 valid_acc:0.9500
time:0.382 s
EarlyStopping counter: 2 out of 70
epoch:2
train_mcc:0.0000 	 train_acc:0.7812 
valid_mcc:0.0000 	 valid_acc:0.9500
…
